…
reshold_loss_scale=None, train_subset='train', update_freq=[76], upsample_primary=1, use_att=['es', 'ds', 'dc'], use_rn=0, use_se=0, user_dir=None, v_relu=0, valid_subset='valid', validate_interval=1, vl='linear', warmup_init_lr=1e-07, warmup_updates=10000, weight_decay=0.0, weight_dropout=0.1, window_padding=0, window_size=8, xt_attn=0, xt_attn_heads=4, xt_in_attn_heads=1, xt_merge=0, xt_relu1=0, xt_relu2=0)
| [en] dictionary: 44512 types
| [fr] dictionary: 44512 types
| data-bin/wmt14_en_fr valid en-fr 26854 examples
TransformerModel(
  (encoder): TransformerCombineEncoder(
    (embed_tokens): Embedding(44512, 768, padding_idx=1)
    (embed_positions): SinusoidalPositionalEmbedding()
    (layers): ModuleList(
      (0): TransformerCombineEncoderLayer(
        (self_attn): MultiheadAttention820(
          (out_proj): Linear(in_features=1536, out_features=768, bias=True)
          (dynamics): ModuleList(
            (0): DynamicConv1dTBC(
              768, kernel_size=3, padding_l=1, num_heads=16, weight_softmax=True, conv_bias=False, renorm_padding=False, in_proj=False, weight_dropout=0.1
              (weight_linear): Linear(in_features=768, out_features=48, bias=False)
            )
            (1): DynamicConv1dTBC(
              768, kernel_size=15, padding_l=7, num_heads=16, weight_softmax=True, conv_bias=False, renorm_padding=False, in_proj=False, weight_dropout=0.1
              (weight_linear): Linear(in_features=768, out_features=240, bias=False)
            )
          )
        )
        (self_attn_layer_norm): LayerNorm((768,), eps=1e-05, elementwise_affine=True)
        (fc1): Linear(in_features=768, out_features=3072, bias=True)
        (fc2): Linear(in_features=3072, out_features=768, bias=True)
      )
      (1): TransformerCombineEncoderLayer(
        (self_attn): MultiheadAttention820(
          (out_proj): Linear(in_features=1536, out_features=768, bias=True)
          (dynamics): ModuleList(
            (0): DynamicConv1dTBC(
              768, kernel_size=3, padding_l=1, num_heads=16, weight_softmax=True, conv_bias=False, renorm_padding=False, in_proj=False, weight_dropout=0.1
              (weight_linear): Linear(in_features=768, out_features=48, bias=False)
            )
            (1): DynamicConv1dTBC(
              768, kernel_size=15, padding_l=7, num_heads=16, weight_softmax=True, conv_bias=False, renorm_padding=False, in_proj=False, weight_dropout=0.1
              (weight_linear): Linear(in_features=768, out_features=240, bias=False)
            )
          )
        )
        (self_attn_layer_norm): LayerNorm((768,), eps=1e-05, elementwise_affine=True)
        (fc1): Linear(in_features=768, out_features=3072, bias=True)
        (fc2): Linear(in_features=3072, out_features=768, bias=True)
      )
      (2): TransformerCombineEncoderLayer(
        (self_attn): MultiheadAttention820(
          (out_proj): Linear(in_features=1536, out_features=768, bias=True)
          (dynamics): ModuleList(
            (0): DynamicConv1dTBC(
              768, kernel_size=3, padding_l=1, num_heads=16, weight_softmax=True, conv_bias=False, renorm_padding=False, in_proj=False, weight_dropout=0.1
              (weight_linear): Linear(in_features=768, out_features=48, bias=False)
            )
            (1): DynamicConv1dTBC(
              768, kernel_size=15, padding_l=7, num_heads=16, weight_softmax=True, conv_bias=False, renorm_padding=False, in_proj=False, weight_dropout=0.1
              (weight_linear): Linear(in_features=768, out_features=240, bias=False)
            )
          )
        )
        (self_attn_layer_norm): LayerNorm((768,), eps=1e-05, elementwise_affine=True)
        (fc1): Linear(in_features=768, out_features=3072, bias=True)
        (fc2): Linear(in_features=3072, out_features=768, bias=True)
      )
      (3): TransformerCombineEncoderLayer(
        (self_attn): MultiheadAttention820(
          (out_proj): Linear(in_features=1536, out_features=768, bias=True)
          (dynamics): ModuleList(
            (0): DynamicConv1dTBC(
              768, kernel_size=3, padding_l=1, num_heads=16, weight_softmax=True, conv_bias=False, renorm_padding=False, in_proj=False, weight_dropout=0.1
              (weight_linear): Linear(in_features=768, out_features=48, bias=False)
            )
            (1): DynamicConv1dTBC(
              768, kernel_size=15, padding_l=7, num_heads=16, weight_softmax=True, conv_bias=False, renorm_padding=False, in_proj=False, weight_dropout=0.1
              (weight_linear): Linear(in_features=768, out_features=240, bias=False)
            )
          )
        )
        (self_attn_layer_norm): LayerNorm((768,), eps=1e-05, elementwise_affine=True)
        (fc1): Linear(in_features=768, out_features=3072, bias=True)
        (fc2): Linear(in_features=3072, out_features=768, bias=True)
      )
      (4): TransformerCombineEncoderLayer(
        (self_attn): MultiheadAttention820(
          (out_proj): Linear(in_features=1536, out_features=768, bias=True)
          (dynamics): ModuleList(
            (0): DynamicConv1dTBC(
              768, kernel_size=3, padding_l=1, num_heads=16, weight_softmax=True, conv_bias=False, renorm_padding=False, in_proj=False, weight_dropout=0.1
              (weight_linear): Linear(in_features=768, out_features=48, bias=False)
            )
            (1): DynamicConv1dTBC(
              768, kernel_size=15, padding_l=7, num_heads=16, weight_softmax=True, conv_bias=False, renorm_padding=False, in_proj=False, weight_dropout=0.1
              (weight_linear): Linear(in_features=768, out_features=240, bias=False)
            )
          )
        )
        (self_attn_layer_norm): LayerNorm((768,), eps=1e-05, elementwise_affine=True)
        (fc1): Linear(in_features=768, out_features=3072, bias=True)
        (fc2): Linear(in_features=3072, out_features=768, bias=True)
      )
      (5): TransformerCombineEncoderLayer(
        (self_attn): MultiheadAttention820(
          (out_proj): Linear(in_features=1536, out_features=768, bias=True)
          (dynamics): ModuleList(
            (0): DynamicConv1dTBC(
              768, kernel_size=3, padding_l=1, num_heads=16, weight_softmax=True, conv_bias=False, renorm_padding=False, in_proj=False, weight_dropout=0.1
              (weight_linear): Linear(in_features=768, out_features=48, bias=False)
            )
            (1): DynamicConv1dTBC(
              768, kernel_size=15, padding_l=7, num_heads=16, weight_softmax=True, conv_bias=False, renorm_padding=False, in_proj=False, weight_dropout=0.1
              (weight_linear): Linear(in_features=768, out_features=240, bias=False)
            )
          )
        )
        (self_attn_layer_norm): LayerNorm((768,), eps=1e-05, elementwise_affine=True)
        (fc1): Linear(in_features=768, out_features=3072, bias=True)
        (fc2): Linear(in_features=3072, out_features=768, bias=True)
      )
      (6): TransformerCombineEncoderLayer(
        (self_attn): MultiheadAttention820(
          (out_proj): Linear(in_features=1536, out_features=768, bias=True)
          (dynamics): ModuleList(
            (0): DynamicConv1dTBC(
              768, kernel_size=3, padding_l=1, num_heads=16, weight_softmax=True, conv_bias=False, renorm_padding=False, in_proj=False, weight_dropout=0.1
              (weight_linear): Linear(in_features=768, out_features=48, bias=False)
            )
            (1): DynamicConv1dTBC(
              768, kernel_size=15, padding_l=7, num_heads=16, weight_softmax=True, conv_bias=False, renorm_padding=False, in_proj=False, weight_dropout=0.1
              (weight_linear): Linear(in_features=768, out_features=240, bias=False)
            )
          )
        )
        (self_attn_layer_norm): LayerNorm((768,), eps=1e-05, elementwise_affine=True)
        (fc1): Linear(in_features=768, out_features=3072, bias=True)
        (fc2): Linear(in_features=3072, out_features=768, bias=True)
      )
      (7): TransformerCombineEncoderLayer(
        (self_attn): MultiheadAttention820(
          (out_proj): Linear(in_features=1536, out_features=768, bias=True)
          (dynamics): ModuleList(
            (0): DynamicConv1dTBC(
              768, kernel_size=3, padding_l=1, num_heads=16, weight_softmax=True, conv_bias=False, renorm_padding=False, in_proj=False, weight_dropout=0.1
              (weight_linear): Linear(in_features=768, out_features=48, bias=False)
            )
            (1): DynamicConv1dTBC(
              768, kernel_size=15, padding_l=7, num_heads=16, weight_softmax=True, conv_bias=False, renorm_padding=False, in_proj=False, weight_dropout=0.1
              (weight_linear): Linear(in_features=768, out_features=240, bias=False)
            )
          )
        )
        (self_attn_layer_norm): LayerNorm((768,), eps=1e-05, elementwise_affine=True)
        (fc1): Linear(in_features=768, out_features=3072, bias=True)
        (fc2): Linear(in_features=3072, out_features=768, bias=True)
      )
      (8): TransformerCombineEncoderLayer(
        (self_attn): MultiheadAttention820(
          (out_proj): Linear(in_features=1536, out_features=768, bias=True)
          (dynamics): ModuleList(
            (0): DynamicConv1dTBC(
              768, kernel_size=3, padding_l=1, num_heads=16, weight_softmax=True, conv_bias=False, renorm_padding=False, in_proj=False, weight_dropout=0.1
              (weight_linear): Linear(in_features=768, out_features=48, bias=False)
            )
            (1): DynamicConv1dTBC(
              768, kernel_size=15, padding_l=7, num_heads=16, weight_softmax=True, conv_bias=False, renorm_padding=False, in_proj=False, weight_dropout=0.1
              (weight_linear): Linear(in_features=768, out_features=240, bias=False)
            )
          )
        )
        (self_attn_layer_norm): LayerNorm((768,), eps=1e-05, elementwise_affine=True)
        (fc1): Linear(in_features=768, out_features=3072, bias=True)
        (fc2): Linear(in_features=3072, out_features=768, bias=True)
      )
      (9): TransformerCombineEncoderLayer(
        (self_attn): MultiheadAttention820(
          (out_proj): Linear(in_features=1536, out_features=768, bias=True)
          (dynamics): ModuleList(
            (0): DynamicConv1dTBC(
              768, kernel_size=3, padding_l=1, num_heads=16, weight_softmax=True, conv_bias=False, renorm_padding=False, in_proj=False, weight_dropout=0.1
              (weight_linear): Linear(in_features=768, out_features=48, bias=False)
            )
            (1): DynamicConv1dTBC(
              768, kernel_size=15, padding_l=7, num_heads=16, weight_softmax=True, conv_bias=False, renorm_padding=False, in_proj=False, weight_dropout=0.1
              (weight_linear): Linear(in_features=768, out_features=240, bias=False)
            )
          )
        )
        (self_attn_layer_norm): LayerNorm((768,), eps=1e-05, elementwise_affine=True)
        (fc1): Linear(in_features=768, out_features=3072, bias=True)
        (fc2): Linear(in_features=3072, out_features=768, bias=True)
      )
      (10): TransformerCombineEncoderLayer(
        (self_attn): MultiheadAttention820(
          (out_proj): Linear(in_features=1536, out_features=768, bias=True)
          (dynamics): ModuleList(
            (0): DynamicConv1dTBC(
              768, kernel_size=3, padding_l=1, num_heads=16, weight_softmax=True, conv_bias=False, renorm_padding=False, in_proj=False, weight_dropout=0.1
              (weight_linear): Linear(in_features=768, out_features=48, bias=False)
            )
            (1): DynamicConv1dTBC(
              768, kernel_size=15, padding_l=7, num_heads=16, weight_softmax=True, conv_bias=False, renorm_padding=False, in_proj=False, weight_dropout=0.1
              (weight_linear): Linear(in_features=768, out_features=240, bias=False)
            )
          )
        )
        (self_attn_layer_norm): LayerNorm((768,), eps=1e-05, elementwise_affine=True)
        (fc1): Linear(in_features=768, out_features=3072, bias=True)
        (fc2): Linear(in_features=3072, out_features=768, bias=True)
      )
      (11): TransformerCombineEncoderLayer(
        (self_attn): MultiheadAttention820(
          (out_proj): Linear(in_features=1536, out_features=768, bias=True)
          (dynamics): ModuleList(
            (0): DynamicConv1dTBC(
              768, kernel_size=3, padding_l=1, num_heads=16, weight_softmax=True, conv_bias=False, renorm_padding=False, in_proj=False, weight_dropout=0.1
              (weight_linear): Linear(in_features=768, out_features=48, bias=False)
            )
            (1): DynamicConv1dTBC(
              768, kernel_size=15, padding_l=7, num_heads=16, weight_softmax=True, conv_bias=False, renorm_padding=False, in_proj=False, weight_dropout=0.1
              (weight_linear): Linear(in_features=768, out_features=240, bias=False)
            )
          )
        )
        (self_attn_layer_norm): LayerNorm((768,), eps=1e-05, elementwise_affine=True)
        (fc1): Linear(in_features=768, out_features=3072, bias=True)
        (fc2): Linear(in_features=3072, out_features=768, bias=True)
      )
    )
  )
  (decoder): TransformerCombineDecoder(
    (embed_tokens): Embedding(44512, 768, padding_idx=1)
    (embed_positions): SinusoidalPositionalEmbedding()
    (layers): ModuleList(
      (0): TransformerCombineDecoderLayer(
        (self_attn): MultiheadAttention820(
          (out_proj): Linear(in_features=1536, out_features=768, bias=True)
          (dynamics): ModuleList(
            (0): DynamicConv1dTBC(
              768, kernel_size=3, padding_l=2, num_heads=16, weight_softmax=True, conv_bias=False, renorm_padding=False, in_proj=False, weight_dropout=0.1
              (weight_linear): Linear(in_features=768, out_features=48, bias=False)
            )
            (1): DynamicConv1dTBC(
              768, kernel_size=15, padding_l=14, num_heads=16, weight_softmax=True, conv_bias=False, renorm_padding=False, in_proj=False, weight_dropout=0.1
              (weight_linear): Linear(in_features=768, out_features=240, bias=False)
            )
          )
        )
        (self_attn_layer_norm): LayerNorm((768,), eps=1e-05, elementwise_affine=True)
        (encoder_attn): MultiheadAttention820(
          (out_proj): Linear(in_features=768, out_features=768, bias=True)
          (dynamics): ModuleList()
        )
        (encoder_attn_layer_norm): LayerNorm((768,), eps=1e-05, elementwise_affine=True)
        (fc1): Linear(in_features=768, out_features=3072, bias=True)
        (fc2): Linear(in_features=3072, out_features=768, bias=True)
      )
      (1): TransformerCombineDecoderLayer(
        (self_attn): MultiheadAttention820(
          (out_proj): Linear(in_features=1536, out_features=768, bias=True)
          (dynamics): ModuleList(
            (0): DynamicConv1dTBC(
              768, kernel_size=3, padding_l=2, num_heads=16, weight_softmax=True, conv_bias=False, renorm_padding=False, in_proj=False, weight_dropout=0.1
              (weight_linear): Linear(in_features=768, out_features=48, bias=False)
            )
            (1): DynamicConv1dTBC(
              768, kernel_size=15, padding_l=14, num_heads=16, weight_softmax=True, conv_bias=False, renorm_padding=False, in_proj=False, weight_dropout=0.1
              (weight_linear): Linear(in_features=768, out_features=240, bias=False)
            )
          )
        )
        (self_attn_layer_norm): LayerNorm((768,), eps=1e-05, elementwise_affine=True)
        (encoder_attn): MultiheadAttention820(
          (out_proj): Linear(in_features=768, out_features=768, bias=True)
          (dynamics): ModuleList()
        )
        (encoder_attn_layer_norm): LayerNorm((768,), eps=1e-05, elementwise_affine=True)
        (fc1): Linear(in_features=768, out_features=3072, bias=True)
        (fc2): Linear(in_features=3072, out_features=768, bias=True)
      )
      (2): TransformerCombineDecoderLayer(
        (self_attn): MultiheadAttention820(
          (out_proj): Linear(in_features=1536, out_features=768, bias=True)
          (dynamics): ModuleList(
            (0): DynamicConv1dTBC(
              768, kernel_size=3, padding_l=2, num_heads=16, weight_softmax=True, conv_bias=False, renorm_padding=False, in_proj=False, weight_dropout=0.1
              (weight_linear): Linear(in_features=768, out_features=48, bias=False)
            )
            (1): DynamicConv1dTBC(
              768, kernel_size=15, padding_l=14, num_heads=16, weight_softmax=True, conv_bias=False, renorm_padding=False, in_proj=False, weight_dropout=0.1
              (weight_linear): Linear(in_features=768, out_features=240, bias=False)
            )
          )
        )
        (self_attn_layer_norm): LayerNorm((768,), eps=1e-05, elementwise_affine=True)
        (encoder_attn): MultiheadAttention820(
          (out_proj): Linear(in_features=768, out_features=768, bias=True)
          (dynamics): ModuleList()
        )
        (encoder_attn_layer_norm): LayerNorm((768,), eps=1e-05, elementwise_affine=True)
        (fc1): Linear(in_features=768, out_features=3072, bias=True)
        (fc2): Linear(in_features=3072, out_features=768, bias=True)
      )
      (3): TransformerCombineDecoderLayer(
        (self_attn): MultiheadAttention820(
          (out_proj): Linear(in_features=1536, out_features=768, bias=True)
          (dynamics): ModuleList(
            (0): DynamicConv1dTBC(
              768, kernel_size=3, padding_l=2, num_heads=16, weight_softmax=True, conv_bias=False, renorm_padding=False, in_proj=False, weight_dropout=0.1
              (weight_linear): Linear(in_features=768, out_features=48, bias=False)
            )
            (1): DynamicConv1dTBC(
              768, kernel_size=15, padding_l=14, num_heads=16, weight_softmax=True, conv_bias=False, renorm_padding=False, in_proj=False, weight_dropout=0.1
              (weight_linear): Linear(in_features=768, out_features=240, bias=False)
            )
          )
        )
        (self_attn_layer_norm): LayerNorm((768,), eps=1e-05, elementwise_affine=True)
        (encoder_attn): MultiheadAttention820(
          (out_proj): Linear(in_features=768, out_features=768, bias=True)
          (dynamics): ModuleList()
        )
        (encoder_attn_layer_norm): LayerNorm((768,), eps=1e-05, elementwise_affine=True)
        (fc1): Linear(in_features=768, out_features=3072, bias=True)
        (fc2): Linear(in_features=3072, out_features=768, bias=True)
      )
      (4): TransformerCombineDecoderLayer(
        (self_attn): MultiheadAttention820(
          (out_proj): Linear(in_features=1536, out_features=768, bias=True)
          (dynamics): ModuleList(
            (0): DynamicConv1dTBC(
              768, kernel_size=3, padding_l=2, num_heads=16, weight_softmax=True, conv_bias=False, renorm_padding=False, in_proj=False, weight_dropout=0.1
              (weight_linear): Linear(in_features=768, out_features=48, bias=False)
            )
            (1): DynamicConv1dTBC(
              768, kernel_size=15, padding_l=14, num_heads=16, weight_softmax=True, conv_bias=False, renorm_padding=False, in_proj=False, weight_dropout=0.1
              (weight_linear): Linear(in_features=768, out_features=240, bias=False)
            )
          )
        )
        (self_attn_layer_norm): LayerNorm((768,), eps=1e-05, elementwise_affine=True)
        (encoder_attn): MultiheadAttention820(
          (out_proj): Linear(in_features=768, out_features=768, bias=True)
          (dynamics): ModuleList()
        )
        (encoder_attn_layer_norm): LayerNorm((768,), eps=1e-05, elementwise_affine=True)
        (fc1): Linear(in_features=768, out_features=3072, bias=True)
        (fc2): Linear(in_features=3072, out_features=768, bias=True)
      )
      (5): TransformerCombineDecoderLayer(
        (self_attn): MultiheadAttention820(
          (out_proj): Linear(in_features=1536, out_features=768, bias=True)
          (dynamics): ModuleList(
            (0): DynamicConv1dTBC(
              768, kernel_size=3, padding_l=2, num_heads=16, weight_softmax=True, conv_bias=False, renorm_padding=False, in_proj=False, weight_dropout=0.1
              (weight_linear): Linear(in_features=768, out_features=48, bias=False)
            )
            (1): DynamicConv1dTBC(
              768, kernel_size=15, padding_l=14, num_heads=16, weight_softmax=True, conv_bias=False, renorm_padding=False, in_proj=False, weight_dropout=0.1
              (weight_linear): Linear(in_features=768, out_features=240, bias=False)
            )
          )
        )
        (self_attn_layer_norm): LayerNorm((768,), eps=1e-05, elementwise_affine=True)
        (encoder_attn): MultiheadAttention820(
          (out_proj): Linear(in_features=768, out_features=768, bias=True)
          (dynamics): ModuleList()
        )
        (encoder_attn_layer_norm): LayerNorm((768,), eps=1e-05, elementwise_affine=True)
        (fc1): Linear(in_features=768, out_features=3072, bias=True)
        (fc2): Linear(in_features=3072, out_features=768, bias=True)
      )
      (6): TransformerCombineDecoderLayer(
        (self_attn): MultiheadAttention820(
          (out_proj): Linear(in_features=1536, out_features=768, bias=True)
          (dynamics): ModuleList(
            (0): DynamicConv1dTBC(
              768, kernel_size=3, padding_l=2, num_heads=16, weight_softmax=True, conv_bias=False, renorm_padding=False, in_proj=False, weight_dropout=0.1
              (weight_linear): Linear(in_features=768, out_features=48, bias=False)
            )
            (1): DynamicConv1dTBC(
              768, kernel_size=15, padding_l=14, num_heads=16, weight_softmax=True, conv_bias=False, renorm_padding=False, in_proj=False, weight_dropout=0.1
              (weight_linear): Linear(in_features=768, out_features=240, bias=False)
            )
          )
        )
        (self_attn_layer_norm): LayerNorm((768,), eps=1e-05, elementwise_affine=True)
        (encoder_attn): MultiheadAttention820(
          (out_proj): Linear(in_features=768, out_features=768, bias=True)
          (dynamics): ModuleList()
        )
        (encoder_attn_layer_norm): LayerNorm((768,), eps=1e-05, elementwise_affine=True)
        (fc1): Linear(in_features=768, out_features=3072, bias=True)
        (fc2): Linear(in_features=3072, out_features=768, bias=True)
      )
      (7): TransformerCombineDecoderLayer(
        (self_attn): MultiheadAttention820(
          (out_proj): Linear(in_features=1536, out_features=768, bias=True)
          (dynamics): ModuleList(
            (0): DynamicConv1dTBC(
              768, kernel_size=3, padding_l=2, num_heads=16, weight_softmax=True, conv_bias=False, renorm_padding=False, in_proj=False, weight_dropout=0.1
              (weight_linear): Linear(in_features=768, out_features=48, bias=False)
            )
            (1): DynamicConv1dTBC(
              768, kernel_size=15, padding_l=14, num_heads=16, weight_softmax=True, conv_bias=False, renorm_padding=False, in_proj=False, weight_dropout=0.1
              (weight_linear): Linear(in_features=768, out_features=240, bias=False)
            )
          )
        )
        (self_attn_layer_norm): LayerNorm((768,), eps=1e-05, elementwise_affine=True)
        (encoder_attn): MultiheadAttention820(
          (out_proj): Linear(in_features=768, out_features=768, bias=True)
          (dynamics): ModuleList()
        )
        (encoder_attn_layer_norm): LayerNorm((768,), eps=1e-05, elementwise_affine=True)
        (fc1): Linear(in_features=768, out_features=3072, bias=True)
        (fc2): Linear(in_features=3072, out_features=768, bias=True)
      )
      (8): TransformerCombineDecoderLayer(
        (self_attn): MultiheadAttention820(
          (out_proj): Linear(in_features=1536, out_features=768, bias=True)
          (dynamics): ModuleList(
            (0): DynamicConv1dTBC(
              768, kernel_size=3, padding_l=2, num_heads=16, weight_softmax=True, conv_bias=False, renorm_padding=False, in_proj=False, weight_dropout=0.1
              (weight_linear): Linear(in_features=768, out_features=48, bias=False)
            )
            (1): DynamicConv1dTBC(
              768, kernel_size=15, padding_l=14, num_heads=16, weight_softmax=True, conv_bias=False, renorm_padding=False, in_proj=False, weight_dropout=0.1
              (weight_linear): Linear(in_features=768, out_features=240, bias=False)
            )
          )
        )
        (self_attn_layer_norm): LayerNorm((768,), eps=1e-05, elementwise_affine=True)
        (encoder_attn): MultiheadAttention820(
          (out_proj): Linear(in_features=768, out_features=768, bias=True)
          (dynamics): ModuleList()
        )
        (encoder_attn_layer_norm): LayerNorm((768,), eps=1e-05, elementwise_affine=True)
        (fc1): Linear(in_features=768, out_features=3072, bias=True)
        (fc2): Linear(in_features=3072, out_features=768, bias=True)
      )
      (9): TransformerCombineDecoderLayer(
        (self_attn): MultiheadAttention820(
          (out_proj): Linear(in_features=1536, out_features=768, bias=True)
          (dynamics): ModuleList(
            (0): DynamicConv1dTBC(
              768, kernel_size=3, padding_l=2, num_heads=16, weight_softmax=True, conv_bias=False, renorm_padding=False, in_proj=False, weight_dropout=0.1
              (weight_linear): Linear(in_features=768, out_features=48, bias=False)
            )
            (1): DynamicConv1dTBC(
              768, kernel_size=15, padding_l=14, num_heads=16, weight_softmax=True, conv_bias=False, renorm_padding=False, in_proj=False, weight_dropout=0.1
              (weight_linear): Linear(in_features=768, out_features=240, bias=False)
            )
          )
        )
        (self_attn_layer_norm): LayerNorm((768,), eps=1e-05, elementwise_affine=True)
        (encoder_attn): MultiheadAttention820(
          (out_proj): Linear(in_features=768, out_features=768, bias=True)
          (dynamics): ModuleList()
        )
        (encoder_attn_layer_norm): LayerNorm((768,), eps=1e-05, elementwise_affine=True)
        (fc1): Linear(in_features=768, out_features=3072, bias=True)
        (fc2): Linear(in_features=3072, out_features=768, bias=True)
      )
      (10): TransformerCombineDecoderLayer(
        (self_attn): MultiheadAttention820(
          (out_proj): Linear(in_features=1536, out_features=768, bias=True)
          (dynamics): ModuleList(
            (0): DynamicConv1dTBC(
              768, kernel_size=3, padding_l=2, num_heads=16, weight_softmax=True, conv_bias=False, renorm_padding=False, in_proj=False, weight_dropout=0.1
              (weight_linear): Linear(in_features=768, out_features=48, bias=False)
            )
            (1): DynamicConv1dTBC(
              768, kernel_size=15, padding_l=14, num_heads=16, weight_softmax=True, conv_bias=False, renorm_padding=False, in_proj=False, weight_dropout=0.1
              (weight_linear): Linear(in_features=768, out_features=240, bias=False)
            )
          )
        )
        (self_attn_layer_norm): LayerNorm((768,), eps=1e-05, elementwise_affine=True)
        (encoder_attn): MultiheadAttention820(
          (out_proj): Linear(in_features=768, out_features=768, bias=True)
          (dynamics): ModuleList()
        )
        (encoder_attn_layer_norm): LayerNorm((768,), eps=1e-05, elementwise_affine=True)
        (fc1): Linear(in_features=768, out_features=3072, bias=True)
        (fc2): Linear(in_features=3072, out_features=768, bias=True)
      )
      (11): TransformerCombineDecoderLayer(
        (self_attn): MultiheadAttention820(
          (out_proj): Linear(in_features=1536, out_features=768, bias=True)
          (dynamics): ModuleList(
            (0): DynamicConv1dTBC(
              768, kernel_size=3, padding_l=2, num_heads=16, weight_softmax=True, conv_bias=False, renorm_padding=False, in_proj=False, weight_dropout=0.1
              (weight_linear): Linear(in_features=768, out_features=48, bias=False)
            )
            (1): DynamicConv1dTBC(
              768, kernel_size=15, padding_l=14, num_heads=16, weight_softmax=True, conv_bias=False, renorm_padding=False, in_proj=False, weight_dropout=0.1
              (weight_linear): Linear(in_features=768, out_features=240, bias=False)
            )
          )
        )
        (self_attn_layer_norm): LayerNorm((768,), eps=1e-05, elementwise_affine=True)
        (encoder_attn): MultiheadAttention820(
          (out_proj): Linear(in_features=768, out_features=768, bias=True)
          (dynamics): ModuleList()
        )
        (encoder_attn_layer_norm): LayerNorm((768,), eps=1e-05, elementwise_affine=True)
        (fc1): Linear(in_features=768, out_features=3072, bias=True)
        (fc2): Linear(in_features=3072, out_features=768, bias=True)
      )
    )
  )
)
| model transformer_vaswani_wmt_en_fr_big, criterion LabelSmoothedCrossEntropyCriterion
| num. model params: 252088368 (num. trained: 252088368)
| training on 8 GPUs
| max tokens per GPU = 1280 and max sentences per GPU = None
| loaded checkpoint checkpoint/enfr_muse_fp/checkpoint_last.pt (epoch 4 @ 8297 updates)
| loading train data for epoch 4
…
