| [de] dictionary: 8848 types
| [en] dictionary: 6632 types
| data-bin/iwslt14.tokenized.de-en valid de-en 7283 examples
TransformerModel(
  (encoder): TransformerCombineEncoder(
    (embed_tokens): Embedding(8848, 384, padding_idx=1)
    (embed_positions): SinusoidalPositionalEmbedding()
    (layers): ModuleList(
      (0): TransformerCombineEncoderLayer(
        (self_attn): MultiheadAttention820(
          (out_proj): Linear(in_features=768, out_features=384, bias=True)
          (dynamics): ModuleList(
            (0): DynamicConv1dTBC(
              384, kernel_size=3, padding_l=1, num_heads=4, weight_softmax=True, conv_bias=False, renorm_padding=False, in_proj=False, weight_dropout=0.1
              (weight_linear): Linear(in_features=384, out_features=12, bias=False)
            )
            (1): DynamicConv1dTBC(
              384, kernel_size=15, padding_l=7, num_heads=4, weight_softmax=True, conv_bias=False, renorm_padding=False, in_proj=False, weight_dropout=0.1
              (weight_linear): Linear(in_features=384, out_features=60, bias=False)
            )
          )
        )
        (self_attn_layer_norm): LayerNorm((384,), eps=1e-05, elementwise_affine=True)
        (fc1): Linear(in_features=384, out_features=768, bias=True)
        (fc2): Linear(in_features=768, out_features=384, bias=True)
      )
      (1): TransformerCombineEncoderLayer(
        (self_attn): MultiheadAttention820(
          (out_proj): Linear(in_features=768, out_features=384, bias=True)
          (dynamics): ModuleList(
            (0): DynamicConv1dTBC(
              384, kernel_size=3, padding_l=1, num_heads=4, weight_softmax=True, conv_bias=False, renorm_padding=False, in_proj=False, weight_dropout=0.1
              (weight_linear): Linear(in_features=384, out_features=12, bias=False)
            )
            (1): DynamicConv1dTBC(
              384, kernel_size=15, padding_l=7, num_heads=4, weight_softmax=True, conv_bias=False, renorm_padding=False, in_proj=False, weight_dropout=0.1
              (weight_linear): Linear(in_features=384, out_features=60, bias=False)
            )
          )
        )
        (self_attn_layer_norm): LayerNorm((384,), eps=1e-05, elementwise_affine=True)
        (fc1): Linear(in_features=384, out_features=768, bias=True)
        (fc2): Linear(in_features=768, out_features=384, bias=True)
      )
      (2): TransformerCombineEncoderLayer(
        (self_attn): MultiheadAttention820(
          (out_proj): Linear(in_features=768, out_features=384, bias=True)
          (dynamics): ModuleList(
            (0): DynamicConv1dTBC(
              384, kernel_size=3, padding_l=1, num_heads=4, weight_softmax=True, conv_bias=False, renorm_padding=False, in_proj=False, weight_dropout=0.1
              (weight_linear): Linear(in_features=384, out_features=12, bias=False)
            )
            (1): DynamicConv1dTBC(
              384, kernel_size=15, padding_l=7, num_heads=4, weight_softmax=True, conv_bias=False, renorm_padding=False, in_proj=False, weight_dropout=0.1
              (weight_linear): Linear(in_features=384, out_features=60, bias=False)
            )
          )
        )
        (self_attn_layer_norm): LayerNorm((384,), eps=1e-05, elementwise_affine=True)
        (fc1): Linear(in_features=384, out_features=768, bias=True)
        (fc2): Linear(in_features=768, out_features=384, bias=True)
      )
      (3): TransformerCombineEncoderLayer(
        (self_attn): MultiheadAttention820(
          (out_proj): Linear(in_features=768, out_features=384, bias=True)
          (dynamics): ModuleList(
            (0): DynamicConv1dTBC(
              384, kernel_size=3, padding_l=1, num_heads=4, weight_softmax=True, conv_bias=False, renorm_padding=False, in_proj=False, weight_dropout=0.1
              (weight_linear): Linear(in_features=384, out_features=12, bias=False)
            )
            (1): DynamicConv1dTBC(
              384, kernel_size=15, padding_l=7, num_heads=4, weight_softmax=True, conv_bias=False, renorm_padding=False, in_proj=False, weight_dropout=0.1
              (weight_linear): Linear(in_features=384, out_features=60, bias=False)
            )
          )
        )
        (self_attn_layer_norm): LayerNorm((384,), eps=1e-05, elementwise_affine=True)
        (fc1): Linear(in_features=384, out_features=768, bias=True)
        (fc2): Linear(in_features=768, out_features=384, bias=True)
      )
      (4): TransformerCombineEncoderLayer(
        (self_attn): MultiheadAttention820(
          (out_proj): Linear(in_features=768, out_features=384, bias=True)
          (dynamics): ModuleList(
            (0): DynamicConv1dTBC(
              384, kernel_size=3, padding_l=1, num_heads=4, weight_softmax=True, conv_bias=False, renorm_padding=False, in_proj=False, weight_dropout=0.1
              (weight_linear): Linear(in_features=384, out_features=12, bias=False)
            )
            (1): DynamicConv1dTBC(
              384, kernel_size=15, padding_l=7, num_heads=4, weight_softmax=True, conv_bias=False, renorm_padding=False, in_proj=False, weight_dropout=0.1
              (weight_linear): Linear(in_features=384, out_features=60, bias=False)
            )
          )
        )
        (self_attn_layer_norm): LayerNorm((384,), eps=1e-05, elementwise_affine=True)
        (fc1): Linear(in_features=384, out_features=768, bias=True)
        (fc2): Linear(in_features=768, out_features=384, bias=True)
      )
      (5): TransformerCombineEncoderLayer(
        (self_attn): MultiheadAttention820(
          (out_proj): Linear(in_features=768, out_features=384, bias=True)
          (dynamics): ModuleList(
            (0): DynamicConv1dTBC(
              384, kernel_size=3, padding_l=1, num_heads=4, weight_softmax=True, conv_bias=False, renorm_padding=False, in_proj=False, weight_dropout=0.1
              (weight_linear): Linear(in_features=384, out_features=12, bias=False)
            )
            (1): DynamicConv1dTBC(
              384, kernel_size=15, padding_l=7, num_heads=4, weight_softmax=True, conv_bias=False, renorm_padding=False, in_proj=False, weight_dropout=0.1
              (weight_linear): Linear(in_features=384, out_features=60, bias=False)
            )
          )
        )
        (self_attn_layer_norm): LayerNorm((384,), eps=1e-05, elementwise_affine=True)
        (fc1): Linear(in_features=384, out_features=768, bias=True)
        (fc2): Linear(in_features=768, out_features=384, bias=True)
      )
      (6): TransformerCombineEncoderLayer(
        (self_attn): MultiheadAttention820(
          (out_proj): Linear(in_features=768, out_features=384, bias=True)
          (dynamics): ModuleList(
            (0): DynamicConv1dTBC(
              384, kernel_size=3, padding_l=1, num_heads=4, weight_softmax=True, conv_bias=False, renorm_padding=False, in_proj=False, weight_dropout=0.1
              (weight_linear): Linear(in_features=384, out_features=12, bias=False)
            )
            (1): DynamicConv1dTBC(
              384, kernel_size=15, padding_l=7, num_heads=4, weight_softmax=True, conv_bias=False, renorm_padding=False, in_proj=False, weight_dropout=0.1
              (weight_linear): Linear(in_features=384, out_features=60, bias=False)
            )
          )
        )
        (self_attn_layer_norm): LayerNorm((384,), eps=1e-05, elementwise_affine=True)
        (fc1): Linear(in_features=384, out_features=768, bias=True)
        (fc2): Linear(in_features=768, out_features=384, bias=True)
      )
      (7): TransformerCombineEncoderLayer(
        (self_attn): MultiheadAttention820(
          (out_proj): Linear(in_features=768, out_features=384, bias=True)
          (dynamics): ModuleList(
            (0): DynamicConv1dTBC(
              384, kernel_size=3, padding_l=1, num_heads=4, weight_softmax=True, conv_bias=False, renorm_padding=False, in_proj=False, weight_dropout=0.1
              (weight_linear): Linear(in_features=384, out_features=12, bias=False)
            )
            (1): DynamicConv1dTBC(
              384, kernel_size=15, padding_l=7, num_heads=4, weight_softmax=True, conv_bias=False, renorm_padding=False, in_proj=False, weight_dropout=0.1
              (weight_linear): Linear(in_features=384, out_features=60, bias=False)
            )
          )
        )
        (self_attn_layer_norm): LayerNorm((384,), eps=1e-05, elementwise_affine=True)
        (fc1): Linear(in_features=384, out_features=768, bias=True)
        (fc2): Linear(in_features=768, out_features=384, bias=True)
      )
      (8): TransformerCombineEncoderLayer(
        (self_attn): MultiheadAttention820(
          (out_proj): Linear(in_features=768, out_features=384, bias=True)
          (dynamics): ModuleList(
            (0): DynamicConv1dTBC(
              384, kernel_size=3, padding_l=1, num_heads=4, weight_softmax=True, conv_bias=False, renorm_padding=False, in_proj=False, weight_dropout=0.1
              (weight_linear): Linear(in_features=384, out_features=12, bias=False)
            )
            (1): DynamicConv1dTBC(
              384, kernel_size=15, padding_l=7, num_heads=4, weight_softmax=True, conv_bias=False, renorm_padding=False, in_proj=False, weight_dropout=0.1
              (weight_linear): Linear(in_features=384, out_features=60, bias=False)
            )
          )
        )
        (self_attn_layer_norm): LayerNorm((384,), eps=1e-05, elementwise_affine=True)
        (fc1): Linear(in_features=384, out_features=768, bias=True)
        (fc2): Linear(in_features=768, out_features=384, bias=True)
      )
      (9): TransformerCombineEncoderLayer(
        (self_attn): MultiheadAttention820(
          (out_proj): Linear(in_features=768, out_features=384, bias=True)
          (dynamics): ModuleList(
            (0): DynamicConv1dTBC(
              384, kernel_size=3, padding_l=1, num_heads=4, weight_softmax=True, conv_bias=False, renorm_padding=False, in_proj=False, weight_dropout=0.1
              (weight_linear): Linear(in_features=384, out_features=12, bias=False)
            )
            (1): DynamicConv1dTBC(
              384, kernel_size=15, padding_l=7, num_heads=4, weight_softmax=True, conv_bias=False, renorm_padding=False, in_proj=False, weight_dropout=0.1
              (weight_linear): Linear(in_features=384, out_features=60, bias=False)
            )
          )
        )
        (self_attn_layer_norm): LayerNorm((384,), eps=1e-05, elementwise_affine=True)
        (fc1): Linear(in_features=384, out_features=768, bias=True)
        (fc2): Linear(in_features=768, out_features=384, bias=True)
      )
      (10): TransformerCombineEncoderLayer(
        (self_attn): MultiheadAttention820(
          (out_proj): Linear(in_features=768, out_features=384, bias=True)
          (dynamics): ModuleList(
            (0): DynamicConv1dTBC(
              384, kernel_size=3, padding_l=1, num_heads=4, weight_softmax=True, conv_bias=False, renorm_padding=False, in_proj=False, weight_dropout=0.1
              (weight_linear): Linear(in_features=384, out_features=12, bias=False)
            )
            (1): DynamicConv1dTBC(
              384, kernel_size=15, padding_l=7, num_heads=4, weight_softmax=True, conv_bias=False, renorm_padding=False, in_proj=False, weight_dropout=0.1
              (weight_linear): Linear(in_features=384, out_features=60, bias=False)
            )
          )
        )
        (self_attn_layer_norm): LayerNorm((384,), eps=1e-05, elementwise_affine=True)
        (fc1): Linear(in_features=384, out_features=768, bias=True)
        (fc2): Linear(in_features=768, out_features=384, bias=True)
      )
      (11): TransformerCombineEncoderLayer(
        (self_attn): MultiheadAttention820(
          (out_proj): Linear(in_features=768, out_features=384, bias=True)
          (dynamics): ModuleList(
            (0): DynamicConv1dTBC(
              384, kernel_size=3, padding_l=1, num_heads=4, weight_softmax=True, conv_bias=False, renorm_padding=False, in_proj=False, weight_dropout=0.1
              (weight_linear): Linear(in_features=384, out_features=12, bias=False)
            )
            (1): DynamicConv1dTBC(
              384, kernel_size=15, padding_l=7, num_heads=4, weight_softmax=True, conv_bias=False, renorm_padding=False, in_proj=False, weight_dropout=0.1
              (weight_linear): Linear(in_features=384, out_features=60, bias=False)
            )
          )
        )
        (self_attn_layer_norm): LayerNorm((384,), eps=1e-05, elementwise_affine=True)
        (fc1): Linear(in_features=384, out_features=768, bias=True)
        (fc2): Linear(in_features=768, out_features=384, bias=True)
      )
    )
  )
  (decoder): TransformerCombineDecoder(
    (embed_tokens): Embedding(6632, 384, padding_idx=1)
    (embed_positions): SinusoidalPositionalEmbedding()
    (layers): ModuleList(
      (0): TransformerCombineDecoderLayer(
        (self_attn): MultiheadAttention820(
          (out_proj): Linear(in_features=768, out_features=384, bias=True)
          (dynamics): ModuleList(
            (0): DynamicConv1dTBC(
              384, kernel_size=3, padding_l=2, num_heads=4, weight_softmax=True, conv_bias=False, renorm_padding=False, in_proj=False, weight_dropout=0.1
              (weight_linear): Linear(in_features=384, out_features=12, bias=False)
            )
            (1): DynamicConv1dTBC(
              384, kernel_size=15, padding_l=14, num_heads=4, weight_softmax=True, conv_bias=False, renorm_padding=False, in_proj=False, weight_dropout=0.1
              (weight_linear): Linear(in_features=384, out_features=60, bias=False)
            )
          )
        )
        (self_attn_layer_norm): LayerNorm((384,), eps=1e-05, elementwise_affine=True)
        (encoder_attn): MultiheadAttention820(
          (out_proj): Linear(in_features=384, out_features=384, bias=True)
          (dynamics): ModuleList()
        )
        (encoder_attn_layer_norm): LayerNorm((384,), eps=1e-05, elementwise_affine=True)
        (fc1): Linear(in_features=384, out_features=768, bias=True)
        (fc2): Linear(in_features=768, out_features=384, bias=True)
      )
      (1): TransformerCombineDecoderLayer(
        (self_attn): MultiheadAttention820(
          (out_proj): Linear(in_features=768, out_features=384, bias=True)
          (dynamics): ModuleList(
            (0): DynamicConv1dTBC(
              384, kernel_size=3, padding_l=2, num_heads=4, weight_softmax=True, conv_bias=False, renorm_padding=False, in_proj=False, weight_dropout=0.1
              (weight_linear): Linear(in_features=384, out_features=12, bias=False)
            )
            (1): DynamicConv1dTBC(
              384, kernel_size=15, padding_l=14, num_heads=4, weight_softmax=True, conv_bias=False, renorm_padding=False, in_proj=False, weight_dropout=0.1
              (weight_linear): Linear(in_features=384, out_features=60, bias=False)
            )
          )
        )
        (self_attn_layer_norm): LayerNorm((384,), eps=1e-05, elementwise_affine=True)
        (encoder_attn): MultiheadAttention820(
          (out_proj): Linear(in_features=384, out_features=384, bias=True)
          (dynamics): ModuleList()
        )
        (encoder_attn_layer_norm): LayerNorm((384,), eps=1e-05, elementwise_affine=True)
        (fc1): Linear(in_features=384, out_features=768, bias=True)
        (fc2): Linear(in_features=768, out_features=384, bias=True)
      )
      (2): TransformerCombineDecoderLayer(
        (self_attn): MultiheadAttention820(
          (out_proj): Linear(in_features=768, out_features=384, bias=True)
          (dynamics): ModuleList(
            (0): DynamicConv1dTBC(
              384, kernel_size=3, padding_l=2, num_heads=4, weight_softmax=True, conv_bias=False, renorm_padding=False, in_proj=False, weight_dropout=0.1
              (weight_linear): Linear(in_features=384, out_features=12, bias=False)
            )
            (1): DynamicConv1dTBC(
              384, kernel_size=15, padding_l=14, num_heads=4, weight_softmax=True, conv_bias=False, renorm_padding=False, in_proj=False, weight_dropout=0.1
              (weight_linear): Linear(in_features=384, out_features=60, bias=False)
            )
          )
        )
        (self_attn_layer_norm): LayerNorm((384,), eps=1e-05, elementwise_affine=True)
        (encoder_attn): MultiheadAttention820(
          (out_proj): Linear(in_features=384, out_features=384, bias=True)
          (dynamics): ModuleList()
        )
        (encoder_attn_layer_norm): LayerNorm((384,), eps=1e-05, elementwise_affine=True)
        (fc1): Linear(in_features=384, out_features=768, bias=True)
        (fc2): Linear(in_features=768, out_features=384, bias=True)
      )
      (3): TransformerCombineDecoderLayer(
        (self_attn): MultiheadAttention820(
          (out_proj): Linear(in_features=768, out_features=384, bias=True)
          (dynamics): ModuleList(
            (0): DynamicConv1dTBC(
              384, kernel_size=3, padding_l=2, num_heads=4, weight_softmax=True, conv_bias=False, renorm_padding=False, in_proj=False, weight_dropout=0.1
              (weight_linear): Linear(in_features=384, out_features=12, bias=False)
            )
            (1): DynamicConv1dTBC(
              384, kernel_size=15, padding_l=14, num_heads=4, weight_softmax=True, conv_bias=False, renorm_padding=False, in_proj=False, weight_dropout=0.1
              (weight_linear): Linear(in_features=384, out_features=60, bias=False)
            )
          )
        )
        (self_attn_layer_norm): LayerNorm((384,), eps=1e-05, elementwise_affine=True)
        (encoder_attn): MultiheadAttention820(
          (out_proj): Linear(in_features=384, out_features=384, bias=True)
          (dynamics): ModuleList()
        )
        (encoder_attn_layer_norm): LayerNorm((384,), eps=1e-05, elementwise_affine=True)
        (fc1): Linear(in_features=384, out_features=768, bias=True)
        (fc2): Linear(in_features=768, out_features=384, bias=True)
      )
      (4): TransformerCombineDecoderLayer(
        (self_attn): MultiheadAttention820(
          (out_proj): Linear(in_features=768, out_features=384, bias=True)
          (dynamics): ModuleList(
            (0): DynamicConv1dTBC(
              384, kernel_size=3, padding_l=2, num_heads=4, weight_softmax=True, conv_bias=False, renorm_padding=False, in_proj=False, weight_dropout=0.1
              (weight_linear): Linear(in_features=384, out_features=12, bias=False)
            )
            (1): DynamicConv1dTBC(
              384, kernel_size=15, padding_l=14, num_heads=4, weight_softmax=True, conv_bias=False, renorm_padding=False, in_proj=False, weight_dropout=0.1
              (weight_linear): Linear(in_features=384, out_features=60, bias=False)
            )
          )
        )
        (self_attn_layer_norm): LayerNorm((384,), eps=1e-05, elementwise_affine=True)
        (encoder_attn): MultiheadAttention820(
          (out_proj): Linear(in_features=384, out_features=384, bias=True)
          (dynamics): ModuleList()
        )
        (encoder_attn_layer_norm): LayerNorm((384,), eps=1e-05, elementwise_affine=True)
        (fc1): Linear(in_features=384, out_features=768, bias=True)
        (fc2): Linear(in_features=768, out_features=384, bias=True)
      )
      (5): TransformerCombineDecoderLayer(
        (self_attn): MultiheadAttention820(
          (out_proj): Linear(in_features=768, out_features=384, bias=True)
          (dynamics): ModuleList(
            (0): DynamicConv1dTBC(
              384, kernel_size=3, padding_l=2, num_heads=4, weight_softmax=True, conv_bias=False, renorm_padding=False, in_proj=False, weight_dropout=0.1
              (weight_linear): Linear(in_features=384, out_features=12, bias=False)
            )
            (1): DynamicConv1dTBC(
              384, kernel_size=15, padding_l=14, num_heads=4, weight_softmax=True, conv_bias=False, renorm_padding=False, in_proj=False, weight_dropout=0.1
              (weight_linear): Linear(in_features=384, out_features=60, bias=False)
            )
          )
        )
        (self_attn_layer_norm): LayerNorm((384,), eps=1e-05, elementwise_affine=True)
        (encoder_attn): MultiheadAttention820(
          (out_proj): Linear(in_features=384, out_features=384, bias=True)
          (dynamics): ModuleList()
        )
        (encoder_attn_layer_norm): LayerNorm((384,), eps=1e-05, elementwise_affine=True)
        (fc1): Linear(in_features=384, out_features=768, bias=True)
        (fc2): Linear(in_features=768, out_features=384, bias=True)
      )
      (6): TransformerCombineDecoderLayer(
        (self_attn): MultiheadAttention820(
          (out_proj): Linear(in_features=768, out_features=384, bias=True)
          (dynamics): ModuleList(
            (0): DynamicConv1dTBC(
              384, kernel_size=3, padding_l=2, num_heads=4, weight_softmax=True, conv_bias=False, renorm_padding=False, in_proj=False, weight_dropout=0.1
              (weight_linear): Linear(in_features=384, out_features=12, bias=False)
            )
            (1): DynamicConv1dTBC(
              384, kernel_size=15, padding_l=14, num_heads=4, weight_softmax=True, conv_bias=False, renorm_padding=False, in_proj=False, weight_dropout=0.1
              (weight_linear): Linear(in_features=384, out_features=60, bias=False)
            )
          )
        )
        (self_attn_layer_norm): LayerNorm((384,), eps=1e-05, elementwise_affine=True)
        (encoder_attn): MultiheadAttention820(
          (out_proj): Linear(in_features=384, out_features=384, bias=True)
          (dynamics): ModuleList()
        )
        (encoder_attn_layer_norm): LayerNorm((384,), eps=1e-05, elementwise_affine=True)
        (fc1): Linear(in_features=384, out_features=768, bias=True)
        (fc2): Linear(in_features=768, out_features=384, bias=True)
      )
      (7): TransformerCombineDecoderLayer(
        (self_attn): MultiheadAttention820(
          (out_proj): Linear(in_features=768, out_features=384, bias=True)
          (dynamics): ModuleList(
            (0): DynamicConv1dTBC(
              384, kernel_size=3, padding_l=2, num_heads=4, weight_softmax=True, conv_bias=False, renorm_padding=False, in_proj=False, weight_dropout=0.1
              (weight_linear): Linear(in_features=384, out_features=12, bias=False)
            )
            (1): DynamicConv1dTBC(
              384, kernel_size=15, padding_l=14, num_heads=4, weight_softmax=True, conv_bias=False, renorm_padding=False, in_proj=False, weight_dropout=0.1
              (weight_linear): Linear(in_features=384, out_features=60, bias=False)
            )
          )
        )
        (self_attn_layer_norm): LayerNorm((384,), eps=1e-05, elementwise_affine=True)
        (encoder_attn): MultiheadAttention820(
          (out_proj): Linear(in_features=384, out_features=384, bias=True)
          (dynamics): ModuleList()
        )
        (encoder_attn_layer_norm): LayerNorm((384,), eps=1e-05, elementwise_affine=True)
        (fc1): Linear(in_features=384, out_features=768, bias=True)
        (fc2): Linear(in_features=768, out_features=384, bias=True)
      )
      (8): TransformerCombineDecoderLayer(
        (self_attn): MultiheadAttention820(
          (out_proj): Linear(in_features=768, out_features=384, bias=True)
          (dynamics): ModuleList(
            (0): DynamicConv1dTBC(
              384, kernel_size=3, padding_l=2, num_heads=4, weight_softmax=True, conv_bias=False, renorm_padding=False, in_proj=False, weight_dropout=0.1
              (weight_linear): Linear(in_features=384, out_features=12, bias=False)
            )
            (1): DynamicConv1dTBC(
              384, kernel_size=15, padding_l=14, num_heads=4, weight_softmax=True, conv_bias=False, renorm_padding=False, in_proj=False, weight_dropout=0.1
              (weight_linear): Linear(in_features=384, out_features=60, bias=False)
            )
          )
        )
        (self_attn_layer_norm): LayerNorm((384,), eps=1e-05, elementwise_affine=True)
        (encoder_attn): MultiheadAttention820(
          (out_proj): Linear(in_features=384, out_features=384, bias=True)
          (dynamics): ModuleList()
        )
        (encoder_attn_layer_norm): LayerNorm((384,), eps=1e-05, elementwise_affine=True)
        (fc1): Linear(in_features=384, out_features=768, bias=True)
        (fc2): Linear(in_features=768, out_features=384, bias=True)
      )
      (9): TransformerCombineDecoderLayer(
        (self_attn): MultiheadAttention820(
          (out_proj): Linear(in_features=768, out_features=384, bias=True)
          (dynamics): ModuleList(
            (0): DynamicConv1dTBC(
              384, kernel_size=3, padding_l=2, num_heads=4, weight_softmax=True, conv_bias=False, renorm_padding=False, in_proj=False, weight_dropout=0.1
              (weight_linear): Linear(in_features=384, out_features=12, bias=False)
            )
            (1): DynamicConv1dTBC(
              384, kernel_size=15, padding_l=14, num_heads=4, weight_softmax=True, conv_bias=False, renorm_padding=False, in_proj=False, weight_dropout=0.1
              (weight_linear): Linear(in_features=384, out_features=60, bias=False)
            )
          )
        )
        (self_attn_layer_norm): LayerNorm((384,), eps=1e-05, elementwise_affine=True)
        (encoder_attn): MultiheadAttention820(
          (out_proj): Linear(in_features=384, out_features=384, bias=True)
          (dynamics): ModuleList()
        )
        (encoder_attn_layer_norm): LayerNorm((384,), eps=1e-05, elementwise_affine=True)
        (fc1): Linear(in_features=384, out_features=768, bias=True)
        (fc2): Linear(in_features=768, out_features=384, bias=True)
      )
      (10): TransformerCombineDecoderLayer(
        (self_attn): MultiheadAttention820(
          (out_proj): Linear(in_features=768, out_features=384, bias=True)
          (dynamics): ModuleList(
            (0): DynamicConv1dTBC(
              384, kernel_size=3, padding_l=2, num_heads=4, weight_softmax=True, conv_bias=False, renorm_padding=False, in_proj=False, weight_dropout=0.1
              (weight_linear): Linear(in_features=384, out_features=12, bias=False)
            )
            (1): DynamicConv1dTBC(
              384, kernel_size=15, padding_l=14, num_heads=4, weight_softmax=True, conv_bias=False, renorm_padding=False, in_proj=False, weight_dropout=0.1
              (weight_linear): Linear(in_features=384, out_features=60, bias=False)
            )
          )
        )
        (self_attn_layer_norm): LayerNorm((384,), eps=1e-05, elementwise_affine=True)
        (encoder_attn): MultiheadAttention820(
          (out_proj): Linear(in_features=384, out_features=384, bias=True)
          (dynamics): ModuleList()
        )
        (encoder_attn_layer_norm): LayerNorm((384,), eps=1e-05, elementwise_affine=True)
        (fc1): Linear(in_features=384, out_features=768, bias=True)
        (fc2): Linear(in_features=768, out_features=384, bias=True)
      )
      (11): TransformerCombineDecoderLayer(
        (self_attn): MultiheadAttention820(
          (out_proj): Linear(in_features=768, out_features=384, bias=True)
          (dynamics): ModuleList(
            (0): DynamicConv1dTBC(
              384, kernel_size=3, padding_l=2, num_heads=4, weight_softmax=True, conv_bias=False, renorm_padding=False, in_proj=False, weight_dropout=0.1
              (weight_linear): Linear(in_features=384, out_features=12, bias=False)
            )
            (1): DynamicConv1dTBC(
              384, kernel_size=15, padding_l=14, num_heads=4, weight_softmax=True, conv_bias=False, renorm_padding=False, in_proj=False, weight_dropout=0.1
              (weight_linear): Linear(in_features=384, out_features=60, bias=False)
            )
          )
        )
        (self_attn_layer_norm): LayerNorm((384,), eps=1e-05, elementwise_affine=True)
        (encoder_attn): MultiheadAttention820(
          (out_proj): Linear(in_features=384, out_features=384, bias=True)
          (dynamics): ModuleList()
        )
        (encoder_attn_layer_norm): LayerNorm((384,), eps=1e-05, elementwise_affine=True)
        (fc1): Linear(in_features=384, out_features=768, bias=True)
        (fc2): Linear(in_features=768, out_features=384, bias=True)
      )
    )
  )
)
| model transformer_iwslt_de_en, criterion LabelSmoothedCrossEntropyCriterion
| num. model params: 48193584 (num. trained: 48193584)
| training on 1 GPUs
| max tokens per GPU = 4000 and max sentences per GPU = None
| no existing checkpoint found checkpoint/deen_transformer_916_fp_cmba_L12_km_384_s1_attn_dynmic_cat1_wide315_nopad_gate/checkpoint_last.pt
…
